…
r7","executionInfo":{"status":"ok","timestamp":1739511860036,"user_tz":-540,"elapsed":257,"user":{"displayName":"장재민","userId":"01534888057018498344"}},"colab":{"base_uri":"https://localhost:8080/"},"outputId":"b29bb36c-3d65-4121-d0ec-660a89f3de31"},"execution_count":null,"outputs":[{"output_type":"stream","name":"stdout","text":["Model: \"sequential_1\"\n","_________________________________________________________________\n"," Layer (type)                Output Shape              Param #   \n","=================================================================\n"," conv2d_11 (Conv2D)          (None, 64, 64, 128)       9728      \n","                                                                 \n"," p_re_lu_11 (PReLU)          (None, 64, 64, 128)       524288    \n","                                                                 \n"," batch_normalization_11 (Bat  (None, 64, 64, 128)      512       \n"," chNormalization)                                                \n","                                                                 \n"," conv2d_12 (Conv2D)          (None, 64, 64, 64)        73792     \n","                                                                 \n"," p_re_lu_12 (PReLU)          (None, 64, 64, 64)        262144    \n","                                                                 \n"," batch_normalization_12 (Bat  (None, 64, 64, 64)       256       \n"," chNormalization)                                                \n","                                                                 \n"," conv2d_transpose_3 (Conv2DT  (None, 64, 64, 32)       18464     \n"," ranspose)                                                       \n","                                                                 \n"," p_re_lu_13 (PReLU)          (None, 64, 64, 32)        131072    \n","                                                                 \n"," batch_normalization_13 (Bat  (None, 64, 64, 32)       128       \n"," chNormalization)                                                \n","                                                                 \n"," conv2d_13 (Conv2D)          (None, 64, 64, 3)         867       \n","                                                                 \n","=================================================================\n","Total params: 1,021,251\n","Trainable params: 1,020,803\n","Non-trainable params: 448\n","_________________________________________________________________\n"]}]},{"cell_type":"code","source":["# subclassing으로 구현한 모델\n","# srcnn\n","\n","import ten
…
